save_example.pt (torch, 6071 bytes, 3 tensors)

W f4 [100, 10]
000000 22 7f 69 bd 38 00 22 bf d3 06 0b 3e fc 61 28 c0
       -0.05700601 -0.63281584 0.13576822 -2.6309805
000010 df 55 6b 3f ae 0b 9d be ec 27 7c 3e 75 ab 34 bf
       0.91927904 -0.30672973 0.24624604 -0.7057412
000020 16 3f bc 3d 6a 46 b5 bd 65 79 58 be bd 2f f3 be
       0.0919172 -0.08851321 -0.21140058 -0.4749736
000030 6b c8 29 be c6 b1 65 bf 74 2d 46 3f 0f 09 ef 3e
       -0.1658036 -0.89724386 0.77413106 0.466866
000040 ea 6c bc bf 25 d9 e6 bd 49 c1 98 bf 70 ec f7 3d
       -1.4720738 -0.11271886 -1.1933986 0.12105644
000050 14 e4 0b bf d4 35 35 bf cb 08 63 3e 3d 5f 25 3f
       -0.54644895 -0.7078526 0.22171323 0.6459845
000060 1d 0a 9f 3f 3b 9b e4 3e 88 33 e2 3d ba ed 96 bf
       1.2424961 0.4464968 0.11044985 -1.1791298
000070 fb d3 bc be 6a a8 ca 3c a8 62 59 bd c1 4b 09 bf
       -0.36880478 0.02473851 -0.0530726 -0.53631216
000080 6f bd d3 3e ce 3d 29 bf dc 68 5d be d3 54 e5 be
       0.41355464 -0.6610993 -0.21622032 -0.44791278
000090 18 10 87 3f e6 90 24 bf 33 61 89 3f c6 01 06 3e
       1.0551786 -0.642836 1.0732788 0.13086614
0000a0 f1 01 63 bf e6 70 63 3e cd 1a f5 3d 90 a1 fc 3e
       -0.8867484 0.22211036 0.119680025 0.49342012
0000b0 eb 23 fa 3e 09 03 c7 be b1 ba 43 3f a4 84 8a 3f
       0.48855528 -0.38869503 0.76456743 1.0821729
0000c0 9f 0c bb 3d f0 47 4c 3e 57 5f b8 3d 92 b3 95 bf
       0.09133267 0.19949317 0.0900256 -1.1695426
0000d0 b5 37 66 3f 9c 6e 01 3f ab d9 cf bf 00 59 50 bd
       0.8992875 0.505594 -1.6238302 -0.050866127
0000e0 94 f1 90 bf 19 0c ba 3f 66 03 95 3e e8 78 7b 3e
       -1.1323724 1.4534942 0.29104155 0.24557841
0000f0 c4 a6 94 bf 6e b9 18 3f 82 41 78 bf 6f 1c a3 bc
       -1.1613393 0.59657943 -0.96974957 -0.01991102
000100 d2 60 39 be 1b 05 51 bd 9b 16 be be 6e 87 fc 3e
       -0.1810334 -0.05103026 -0.37126622 0.49322075
000110 57 10 39 3f 4f db 41 3d bd 67 f0 bf 7d a0 7c bf
       0.7229056 0.04732829 -1.8781658 -0.98682386
000120 2c 87 94 bf 90 7a 94 3e 49 e4 17 3e 8a 60 f0 bd
       -1.1603751 0.28999758 0.14833178 -0.11737163
000130 3d b5 2b bf 76 b9 64 bc e5 da 56 bd 3e ac e3 be
       -0.6707342 -0.013960233 -0.052454848 -0.44467348
000140 37 1f f6 bd 37 53 80 3e 17 b0 0d bf a2 94 93 bf
       -0.120176725 0.25063488 -0.55346817 -1.1529734
000150 98 c7 06 3d 4b b0 51 3f 60 94 24 3f 97 62 2e 3f
       0.03290519 0.81909627 0.642889 0.68119186
000160 87 a8 24 be ab f6 43 3f a8 61 f8 3e 86 f8 1a 3e
       -0.16079913 0.7654826 0.48512006 0.15133867
000170 97 ab a6 bf 2e 10 50 3f 8c 37 c0 3e fb d7 36 3f
       -1.3021115 0.8127469 0.3754238 0.7142331
000180 b9 45 f4 3e f9 d5 d7 bf 3c ce 92 bf eb d6 55 3f
       0.47709444 -1.6862174 -1.1469188 0.83531064
000190 25 f5 12 c0 84 32 d7 3f ab 33 01 40 73 71 06 c0
       -2.2962124 1.6812291 2.0187786 -2.1006744
0001a0 e3 13 0b 3d f5 77 81 bf 77 3e eb 3e 82 96 a0 3f
       0.033954512 -1.0114733 0.45946094 1.2545931
0001b0 6a 86 56 bd 31 8e bc 3e 4c ae 06 3e 1a c7 ff be
       -0.05237428 0.36827233 0.13152426 -0.4995659
0001c0 b1 5b ae be 94 87 5a bf 32 ca 1b 3e 64 ba df be
       -0.3405433 -0.85363126 0.1521385 -0.43696892
0001d0 76 ba 73 be ef c3 a6 3e f6 7c 4c 3e ac 78 28 c0
       -0.23801598 0.3257136 0.19969544 -2.6323652
0001e0 c7 5a 47 bf d6 c5 98 bf f8 81 0c bf 54 e8 22 3f
       -0.7787289 -1.1935375 -0.54885817 0.63635755
0001f0 3e 6e 46 bd 7c 40 4f bf 7d 49 17 3a db 0c 87 bf
       -0.04844498 -0.8095777 0.00057711435 -1.0550798
000200 26 42 40 3d 26 cc 05 c0 a6 19 20 3f 91 d8 2e bf
       0.046938084 -2.0905852 0.62539136 -0.68299204
000210 a2 77 ec bd ef 6d 8b be ec d4 7a 3f c3 5d 89 bf
       -0.11546256 -0.2723231 0.97981143 -1.0731739
000220 1f 91 0e c0 5b b6 d6 bf 4e 44 1d bf 7f b3 dc bc
       -2.2276075 -1.67744 -0.6143235 -0.02694106
000230 92 de ea 3d 34 db b7 3d 14 3c 8f 3e 9a 09 d7 bd
       0.11468233 0.089773566 0.27975523 -0.10499878
000240 96 84 a9 bf 0c d4 5a 3f 53 22 75 be 06 ee 7c bf
       -1.3243587 0.8547981 -0.23938875 -0.98800695
000250 f5 ad 05 3f c0 b9 c1 be 1f 7b b9 3d 11 d7 9e 3e
       0.5221856 -0.37837029 0.090566866 0.31023458
000260 2c e4 7d bf fd 6c 69 3f e2 30 83 bf 2b c6 1b bf
       -0.9917629 0.9118193 -1.0249293 -0.60849255
000270 b5 8e bc 3e b2 12 91 3f 64 8e 00 bf ed 57 0c 3d
       0.36827627 1.133383 -0.5021727 0.03426354
000280 e5 f8 55 3e 96 c1 7e be 29 2f 26 3f ad 96 cd 3e
       0.20895727 -0.24878535 0.6491571 0.4015402
000290 1f cc dc 3e d7 fe 64 be 10 a2 49 3f e7 5b cf bd
       0.43124482 -0.22362839 0.7876291 -0.10124951
0002a0 aa 8f fa bd 78 18 8d bf 54 22 04 bf 5f e2 9f 3f
       -0.12234433 -1.1023092 -0.5161488 1.2490958
0002b0 6b 3c 39 3f e4 e5 de 3f 85 5d 65 3f e8 a2 a9 bd
       0.72357816 1.7413907 0.89595824 -0.08283025
0002c0 ef 83 40 3e 90 99 07 c0 dd 45 69 3f a9 24 ae be
       0.18800329 -2.1187477 0.9112223 -0.34012344
0002d0 28 5a b5 bf ed 00 be bf 98 6a 63 3f de 6f 90 bf
       -1.4168139 -1.4844033 0.88834524 -1.1284139
0002e0 14 74 9f 3f 01 f2 b8 be c4 d9 26 3e be a5 34 be
       1.2457299 -0.36122134 0.16294008 -0.1764135
0002f0 8b 7b 56 bf 7a d8 9e 3f 55 8b 8f be d2 8b ec be
       -0.8378226 1.2409813 -0.2803599 -0.46200424
000300 61 47 6e bf 18 4b 5b be 07 3e 57 3e 70 7b 97 3d
       -0.93077666 -0.21415365 0.21019755 0.07396591
000310 75 25 ca be f1 3f cd 3d 64 b5 b7 bf 2d 2d 0c bf
       -0.39481702 0.100219615 -1.4352231 -0.5475643
000320 3b 27 94 bf 2e ea f0 3e 75 6f e1 be d6 7e 11 bf
       -1.1574472 0.47053665 -0.44030347 -0.5683416
000330 98 21 a1 bf ba 77 36 3c a4 3e 08 c0 80 2d bc 3e
       -1.2588377 0.0111369435 -2.1288233 0.36753464
000340 b0 ae 54 bf a1 d4 07 bf 03 e4 82 bf 5f de bd 3b
       -0.8307905 -0.5305882 -1.0225834 0.005794331
000350 f9 b8 17 3f 95 01 b3 3f ab 5d 12 3f e2 c4 88 bf
       0.5926662 1.3984858 0.57174176 -1.0685084
000360 d8 4c d2 3e 01 c4 98 3c 71 06 2c c0 54 56 04 bf
       0.41074252 0.01864815 -2.6878932 -0.51694226
000370 a8 e9 05 3d 61 07 9e be 34 01 03 c0 ed 0f 44 3f
       0.032693535 -0.30865005 -2.0469484 0.765868
000380 e0 7e 3a be fb 88 de 3d c7 4e 33 bf 6e 05 95 bf
       -0.18212461 0.10865971 -0.7004208 -1.1642282
000390 10 52 bb be f4 c2 3f bf 74 70 28 3f ee 5c e6 bf
       -0.36586046 -0.7490685 0.6579659 -1.799711
0003a0 08 27 98 bf 30 12 6f 3e 00 52 e5 be 64 64 9d bf
       -1.1886911 0.23346782 -0.44789124 -1.2296262
0003b0 c2 6b 05 3f 91 5b 3c 3f 17 cf 0a bf 15 4c 6a bf
       0.5211755 0.7357722 -0.54222244 -0.9152234
0003c0 09 d7 94 bd b8 1d 8a 3e d7 83 5f bf 3d f8 a7 be
       -0.07267577 0.269758 -0.87310547 -0.32806578
0003d0 ba 71 39 3f 2c 37 23 bf ca 85 30 bf 63 58 e2 bf
       0.7243916 -0.6375606 -0.68954146 -1.7683223
0003e0 1a 0c 57 bf 2c 30 a6 3d dd ed c9 be 4e 30 64 3f
       -0.8400284 0.08114657 -0.39439288 0.8913621
0003f0 27 b5 17 3e 69 25 59 3e 5e 9e 33 bf f4 eb 85 bf
       0.14815198 0.21205677 -0.70163524 -1.0462632

vb f4 [1, 10]
000000 ed dc 8a be 12 9b 80 be 37 da 2f 3d d0 81 85 be
       -0.27121678 -0.2511831 0.042932715 -0.26075602
000010 68 58 90 be 80 56 85 be 96 e3 4c be 42 f9 63 be
       -0.2819245 -0.26042557 -0.20008692 -0.22263053
000020 1a 86 91 be 82 ab 6a be
       -0.28422624 -0.22916988

hb f4 [1, 100]
000000 e1 70 7a 3e 72 e5 a6 3e 57 aa 49 be a9 02 ed bd
       0.24457122 0.32596928 -0.19693886 -0.11572773
000010 36 35 48 be fa 0e 64 3e 35 23 41 be f2 ec 0f 3f
       -0.19551548 0.22271338 -0.18861087 0.56220925
000020 fb fe 9b bd eb cd 2d be 6d e7 9e 3e 8f 4e 8b 3e
       -0.07616993 -0.16973083 0.3103594 0.27208373
000030 12 a3 cb 3e 3a 7f 4a 3e 90 11 cc bc 5d 03 ee bd
       0.3977285 0.19775096 -0.024910718 -0.11621735
000040 9e 19 1f be a8 e0 54 be d3 34 3d 3e 4a 7e ef 3e
       -0.15537116 -0.20788825 0.18477182 0.46776038
000050 d3 19 fd 3e 44 0d 7e 3e a7 d8 f3 3d a7 80 0b 3d
       0.49433765 0.24809748 0.119065575 0.03405824
000060 c7 8b cc 3e 79 6e 91 3e bc 58 6a be 9b ee 28 be
       0.39950392 0.28404596 -0.22885412 -0.16497271
000070 0d e7 5e be 51 ac 5b 3e 52 29 c0 3e f7 77 d3 3e
       -0.21767826 0.21452452 0.37531525 0.41302463
000080 95 d8 f5 3c 7c c7 0a 3f a6 00 46 be df 32 13 be
       0.0300105 0.5421064 -0.19336185 -0.14374875
000090 ba 0f 46 be f2 e7 93 be 1f 2e 0a 3f 2d 85 0e be
       -0.19341937 -0.28887898 0.53976625 -0.1391799
0000a0 70 16 40 be 71 94 ad be 9d c7 80 be fb 26 e1 3e
       -0.18758559 -0.33902314 -0.25152293 0.43975052
0000b0 19 3b a7 3e 14 8f 17 be f1 fe 81 3e e5 e2 24 be
       0.32662275 -0.14800674 0.25389817 -0.16102178
0000c0 b7 4e ee bd 45 76 70 3e 85 6b d2 3e 1e 12 55 3e
       -0.116361074 0.23482616 0.41097656 0.20807692
0000d0 ec a5 36 3e 32 a7 88 be 5c 25 2e 3e 08 e8 64 3e
       0.17836732 -0.2669006 0.17006439 0.22354138
0000e0 bf e0 de 3e a9 de 3f 3e 5b 3f e0 3e 91 53 d5 3e
       0.43530843 0.18737282 0.43798336 0.4166532
0000f0 ea d1 81 3e 21 95 d8 3e 9f ff b5 3e 4d 2d fd be
       0.25355464 0.42301276 0.35546586 -0.49448624
000100 4f 88 e0 3d 67 4b 07 3f eb 0a 17 be 42 8a 96 be
       0.10963499 0.5284943 -0.14750259 -0.29402357
000110 38 5a 88 be 0a ba f2 3e 5e c0 0d be 62 61 29 be
       -0.2663133 0.47407562 -0.13842914 -0.16541055
000120 08 50 8a 3e 2b a8 d0 be bb 88 b5 3e e5 01 4f be
       0.27014184 -0.40753302 0.3545588 -0.20215566
000130 69 17 43 be 2c 57 3f 3e d0 ad 10 3e f1 7a f9 be
       -0.19051899 0.18685597 0.14128804 -0.4872661
000140 a4 85 23 3d 3c 63 9b be 4e 24 8d be 87 67 54 be
       0.03992237 -0.30349147 -0.2756676 -0.20742618
000150 01 f6 dd 3d 8f 5a 5f 3d 0c 90 be 3e be 84 c7 3e
       0.10837937 0.054529723 0.37219274 0.38968462
000160 1e 9f 09 3e c6 7e 19 be b9 93 7e bd cb d1 3a be
       0.13439605 -0.14989766 -0.062152598 -0.18244092
000170 d7 22 3a 3e ff 42 0f be 27 7e ec 3e e4 06 dc be
       0.18177353 -0.139904 0.46189997 -0.42974007
000180 c6 38 c2 3e e2 07 8d 3e ff 53 60 be 34 bd e4 3e
       0.3793394 0.27545077 -0.21907042 0.446756
